ASR_Downstream_tasks_hubert-base/speaker_recognition/best_model.pth (torch, 897085 bytes, 2 tensors)

classifier.weight f4 [291, 768]
000000 c0 ea 76 bf 8e 04 70 3f 84 7b 22 be f4 d9 36 3f
       -0.9645195 0.9375695 -0.1586743 0.7142632
000010 4f 7c 6e be aa 11 1f c0 17 3e 66 3e 1b 33 40 3f
       -0.23289607 -2.4854531 0.22484623 0.7507798
000020 80 d6 ee 3e 58 23 b0 bf 8d ac ff be 48 44 3a bf
       0.46648026 -1.3760786 -0.49936333 -0.7276044
000030 5c a0 9c bd 9c ed 45 bd a9 03 33 c0 39 24 9a bf
       -0.076477736 -0.048322305 -2.7970984 -1.2042304
000040 8a d4 89 3d b0 13 2e 3f 2f 21 57 bb f9 ac b7 bf
       0.06729992 0.6799879 -0.0032826175 -1.4349662
000050 76 8d eb 3f 90 3b 97 3e ab 01 e9 3f 38 a2 3c 40
       1.8402545 0.2953763 1.8203634 2.947401
000060 67 ec 9a 3f 4e aa 3a 3f b5 c8 bf 3f d0 29 a9 be
       1.2103394 0.72916114 1.4983126 -0.33039713
000070 0b 61 66 bf 0d 80 14 bf 5b bd 12 3f 21 11 8b bf
       -0.89991826 -0.5800789 0.57320184 -1.0864602
000080 77 4c b2 bf 1b 51 8f bf c6 84 94 3f e7 06 a2 3c
       -1.3929585 -1.1196626 1.1603019 0.019778682
000090 be f2 29 3f 9e 1b 40 bf 7b 75 69 3f 37 91 e6 3e
       0.6638602 -0.7504214 0.91194886 0.45032665
0000a0 0d 57 84 be 15 34 83 3f 20 72 a6 3f a6 f8 83 bf
       -0.25847664 1.0250269 1.3003578 -1.0310256
0000b0 41 c9 31 3f 5a b7 d9 3e 36 e6 43 3f 24 f5 4e 3f
       0.69447714 0.425227 0.7652315 0.80842805
0000c0 19 2a 25 40 1c c1 0f c0 cc 7e b8 be 89 e3 31 3f
       2.5806944 -2.2461615 -0.36034238 0.69487816
0000d0 0d 8f 99 be 17 59 64 3f 62 fd a2 bf 00 97 91 3e
       -0.29991952 0.8919844 -1.2733576 0.28435516
0000e0 71 50 26 c0 c5 be 02 bf 24 a9 98 3f 5f 85 93 3d
       -2.5986598 -0.5107234 1.1926618 0.07203173
0000f0 c5 a7 5d bf 06 08 80 be e3 3e d0 bc 3d 86 01 3f
       -0.8658412 -0.2500612 -0.025420612 0.50595456
000100 83 6e 9d bf 41 d9 3a bf c3 75 78 3f 22 b2 0c 40
       -1.229935 -0.72987753 0.9705469 2.1983724
000110 b3 d2 f2 3e 86 33 99 be f7 87 94 3f ba b9 73 bd
       0.47426376 -0.29922122 1.1603993 -0.059503295
000120 97 74 48 3d 11 a0 06 be 1d 0a 49 3e cf ab 0a c0
       0.048939314 -0.13146998 0.19632764 -2.1667364
000130 db 4b 04 3f a3 76 0f 3f 02 9e 6a bf 2a 19 35 3f
       0.51678246 0.560404 -0.9164735 0.7074152
000140 0a 52 14 be 1a fd 3d 3f f3 33 b8 bf dd cc 86 be
       -0.1448442 0.7421433 -1.4390854 -0.26328173
000150 a4 32 06 bf 28 a7 65 3f 9f 96 0f bf 6e cc 77 bf
       -0.5242102 0.89708185 -0.56089205 -0.9679631
000160 7d 24 ab bf 38 11 96 3e 9a f9 f2 bf d7 81 81 3d
       -1.337051 0.29310012 -1.8982422 0.06323593
000170 dd 04 c5 be ff 6d 94 be c5 78 cf bf 72 e6 96 bd
       -0.38480273 -0.2899017 -1.6208731 -0.07368173
000180 13 31 86 3f e0 bd 15 3f 18 1c 11 c0 4a cd 2b bf
       1.0483726 0.5849285 -2.2673397 -0.6711012
000190 45 a3 54 40 9f e9 2e 3c 4f 98 e5 3e dd a0 2a 40
       3.3224652 0.010675817 0.44842765 2.6660683
0001a0 be ee 4e be bb 83 21 bf a0 23 d1 be 3d a8 c3 be
       -0.2020826 -0.6309163 -0.40847492 -0.38214293
0001b0 64 c7 37 3f 53 56 08 c0 48 47 69 bf 85 fa 1d 3f
       0.7178862 -2.1302688 -0.9112439 0.6171039
0001c0 13 44 80 3f a9 9a 9d 3e cf 4d 37 c0 89 c8 37 bd
       1.0020775 0.3078206 -2.864124 -0.04486898
0001d0 24 49 32 bf 04 c6 50 bd b7 35 3f 3f cd e9 34 bf
       -0.69642854 -0.050970092 0.7469134 -0.7066925
0001e0 88 bc bd 3f 94 9b 99 3e dc 89 b6 bd 72 2e bd bf
       1.482316 0.3000151 -0.08913013 -1.4779799
0001f0 40 f6 06 3f 83 3e 8c bf af 2b a0 3f 53 ae 30 be
       0.527195 -1.0956577 1.2513331 -0.17254
000200 12 e9 90 bf 8d f4 61 bf fc c1 00 3f 18 60 8c bf
       -1.1321127 -0.8826378 0.50295997 -1.0966825
000210 1b 86 d8 be af bd 49 bf a7 f4 af 3e 87 7e e5 3c
       -0.42289814 -0.7880506 0.34366342 0.028014435
000220 d6 a3 25 bf 6e d1 4b 3d 96 6c 4b bf d2 05 cf bf
       -0.6470312 0.049760275 -0.79462564 -1.6173651
000230 d7 8f f3 bf a2 39 c7 bd fa d2 72 be 34 e4 76 3f
       -1.9028271 -0.097277895 -0.23713294 0.9644196
000240 f7 6a b7 be 0c ed e5 bd 2d aa 37 3f 37 9e 38 40
       -0.35823795 -0.11226854 0.7174404 2.8846567
000250 1e 55 b3 3e 86 51 eb be ac cc 67 bd a6 1e 71 bf
       0.35025877 -0.45960635 -0.056591675 -0.9418739
000260 02 53 2a c0 2a 21 21 bf a8 99 65 3e cd 9a 85 3f
       -2.6613164 -0.6294123 0.22421896 1.0437866
000270 9a 5c 3b bd 55 a0 25 bf 03 7c b0 3e 3b 92 75 40
       -0.04574261 -0.6469777 0.34469613 3.8370502
000280 8f 55 00 bf 48 a4 a5 be 21 a8 64 3f 48 57 95 3f
       -0.5013055 -0.323519 0.89319044 1.1667261
000290 fe e7 58 3f 92 cb 09 3f 0a 48 25 3f 73 82 58 3f
       0.8472899 0.5382625 0.6456305 0.8457405
0002a0 b0 9d 18 3f d3 87 c2 be 85 8a b6 be e6 41 c1 bd
       0.5961561 -0.3799425 -0.35652557 -0.09436397
0002b0 e0 4a a8 3f 56 1a ba be d9 da 1a 3f 4f 28 14 bd
       1.314785 -0.36348218 0.60490185 -0.036171254
0002c0 12 56 c8 bd 33 be 99 be 41 3c 1f 3f da ec 94 bd
       -0.097820416 -0.30027923 0.62201315 -0.07271738
0002d0 a3 2e 28 bf 84 d2 db bc 6b 44 05 40 57 b5 ac 3d
       -0.6569616 -0.02683378 2.082301 0.08433025
0002e0 32 ed 8a bf 18 54 b1 3f f2 f5 de 3e 6b 3f c9 bf
       -1.0853636 1.3853788 0.43547016 -1.5722479
0002f0 09 da 1b c0 43 e6 37 3f fe 36 10 40 05 ca fd be
       -2.4351828 0.71835726 2.2533565 -0.4956819
000300 3e 82 5b bf 1c 11 03 c0 1b 74 76 3f d1 83 68 3e
       -0.8574561 -2.0479193 0.9627091 0.22706534
000310 c9 b1 bb 3e 8b fe 2c 40 31 60 a9 bf 57 b5 e3 3d
       0.36659077 2.703036 -1.323248 0.11118572
000320 46 5b 95 be b4 ae e6 3f 4c d1 54 3e b7 5b 09 3d
       -0.291712 1.8022065 0.20782965 0.03353473
000330 5a 6b cc 3f f8 95 cc 3e ea 6d af bc 91 a0 cb 3f
       1.5970261 0.39958167 -0.021414716 1.5908376
000340 e4 d8 8f 3e 53 b5 3c bf e9 db 47 3f 31 e4 2d 3e
       0.28095162 -0.7371418 0.7806993 0.1698158
000350 e3 52 17 bf 02 74 db 3f 3f bb 65 be c2 a9 9b bf
       -0.5911085 1.7144778 -0.2243471 -1.2161181
000360 fd fc 94 3f 43 16 28 40 5e 39 84 3f db ad 36 3f
       1.1639706 2.6263587 1.0330007 0.7135903
000370 ef 83 c2 3f 3d 93 96 bd ea cf e3 3f 2c 05 8a bc
       1.5196513 -0.07352302 1.7797825 -0.01684817
000380 b6 14 a2 3f 72 ea e2 bf ea bf a3 be 1e 07 22 3f
       1.266257 -1.7727797 -0.31982356 0.6329211
000390 5a ab 23 bf a8 16 6c 3f d6 09 20 b7 fe 4c 1c c0
       -0.63933337 0.9222207 -9.539033e-06 -2.4421992
0003a0 35 a9 f3 bf 86 6f b3 3f 9c 1d 6d 3f 51 11 0f bf
       -1.9036013 1.4018409 0.92623305 -0.558858
0003b0 46 1a c5 bf 1d d2 a7 3d 89 be d6 bb 5d 03 a3 be
       -1.5398643 0.08194373 -0.0065534753 -0.31838503
0003c0 2a 8d 93 bf aa 67 ac bf 58 3f ef 3e dd 20 10 3f
       -1.1527455 -1.3469136 0.46728015 0.56300145
0003d0 3a d0 29 bf 61 c1 a5 bf b8 07 e7 3f 96 d3 ef be
       -0.66333354 -1.294964 1.804923 -0.46841115
0003e0 de 8c 40 3f f9 3c d0 bd e1 02 06 3e 82 60 07 bf
       0.75214946 -0.101678796 0.13087036 -0.52881634
0003f0 22 5d 9b 3f 60 55 d7 3f 0d 40 12 3e 8c c3 54 bf
       1.2137797 1.6822929 0.14282246 -0.8311088

classifier.bias f4 [291]
000000 4a 05 9c bc 22 48 c6 3c f4 c8 02 3e 9c f3 33 bd
       -0.01904549 0.024204317 0.1277197 -0.043933496
000010 9d 2c 1e bc 25 34 51 bd 20 89 93 be 00 83 9b bd
       -0.009654191 -0.05107512 -0.28815556 -0.07593346
000020 f8 f3 88 bd d7 34 4f 3e bb 9e bb bd 55 bc 9b be
       -0.06687158 0.20235 -0.09161135 -0.30417123
000030 41 96 a1 be 18 6d 93 be 20 75 52 bd 00 0f 98 bd
       -0.31559947 -0.2879417 -0.05138123 -0.07424736
000040 52 11 94 bd 7f bf 0f 3d a0 50 8b be 33 ce 87 be
       -0.07229866 0.035094734 -0.2720995 -0.26524505
000050 65 0f f8 bd fa 54 8b 3d 2e 20 3d bd 4b 71 19 3e
       -0.12112311 0.06803317 -0.046173267 0.14984624
000060 1e 61 6c 3b 61 b4 42 3d 35 e8 c0 3c e0 e9 13 3c
       0.0036068629 0.047535304 0.023548225 0.009027928
000070 0f 47 84 bd ed 77 9b be 99 cd c9 bd 09 5f 17 3c
       -0.06458866 -0.30364934 -0.09853668 0.009238967
000080 1c 90 0b bd 74 8b c3 bd 08 ff 66 bd 80 2d 1d 3c
       -0.03407298 -0.09548083 -0.05639556 0.009593368
000090 ca 29 b7 bb ed 5a 24 be 80 fb 8a 3d 8c 23 bb 3c
       -0.0055896984 -0.1605031 0.06786251 0.022844099
0000a0 ed ca 24 3d d9 c2 3c bd 55 6c 9d bc 36 73 21 bd
       0.040232588 -0.04608426 -0.019216696 -0.039416514
0000b0 b3 02 0d 3e 1e 67 e8 3c d5 da 81 be 5e e5 48 bd
       0.13770561 0.028369483 -0.25362268 -0.049046867
0000c0 68 9c a4 bd 00 a0 11 bd 16 e6 21 bd b4 3f 86 bd
       -0.080376446 -0.03555298 -0.039526068 -0.06555119
0000d0 9a fa 9f be 8b 40 ff bd 52 1d 89 bd 01 66 3c 3d
       -0.3124588 -0.124634825 -0.066950455 0.045995716
0000e0 3b 7a 18 bd dc 64 e0 bd 6f b7 06 be b3 f2 80 3d
       -0.037225943 -0.109567374 -0.13155912 0.06296291
0000f0 0d 77 4e bd e9 3e 9d be 1c ff 27 bd 33 6d 9e be
       -0.050406504 -0.3071206 -0.041014776 -0.30942687
000100 84 79 de bd d5 87 71 3c 9c cb 23 bd 33 70 ce 3d
       -0.10863021 0.014741858 -0.0399891 0.10079994
000110 20 29 71 bd ef 28 a7 3b e1 aa cb 3c f3 68 38 bd
       -0.05887711 0.005101315 0.024861755 -0.045021962
000120 a5 9a cc 3c 79 df 8e 3d 76 95 96 be a1 0e eb bd
       0.024976084 0.06976218 -0.29410905 -0.114773996
000130 91 35 25 be 27 09 61 bd 15 ff 2f bb 5d 73 9c be
       -0.16133715 -0.05494037 -0.0026854922 -0.30556765
000140 31 fb b5 bb 10 e5 84 bd 90 22 75 bd f6 54 ba bd
       -0.005553626 -0.06489003 -0.059847414 -0.09098236
000150 2c e7 18 bd 13 2c f4 bc 08 40 3f 3b 1e f9 9b be
       -0.037329838 -0.029806172 0.0029182453 -0.304635
000160 66 a5 84 bd 78 01 21 bd 9b cf 6e bc b7 3c fa bb
       -0.0647686 -0.03930804 -0.014575864 -0.0076366323
000170 19 d1 51 bd 47 f6 36 3e 47 ba 70 bd 81 cf 4d 3d
       -0.0512248 0.17867385 -0.058771398 0.05024672
000180 7f ce 84 3d e8 32 0b 3e 17 f7 ed bd 77 d6 0d be
       0.064846985 0.13593638 -0.11619394 -0.13851343
000190 0f 49 32 3d c6 82 db 3c b8 d6 63 3c 58 ce 90 bc
       0.043526705 0.026795756 0.013906173 -0.017676517
0001a0 de 5c 10 3e f8 de f2 3c 72 f9 22 bd ac 20 4a 3c
       0.14097926 0.029647335 -0.03978867 0.012336891
0001b0 48 4a e9 bd 6d 90 8b be 46 b6 83 be 5a e6 87 3c
       -0.11391121 -0.27258626 -0.25725 0.016589332
0001c0 a9 d8 7d 3d ed f5 cd 3d c6 58 70 bd 62 a9 97 be
       0.0619742 0.10056672 -0.05867841 -0.29621416
0001d0 d3 91 6c bd 57 8b f2 3c 7b e8 19 bb 06 9b 00 3d
       -0.057756256 0.029607458 -0.0023484516 0.031397842
0001e0 ec 07 9f bb 19 34 31 3c 6a d3 d9 bb 63 03 07 3d
       -0.0048532393 0.010815644 -0.006647517 0.032962214
0001f0 81 d7 2c be 51 a8 72 bb 25 76 6c 3d 92 d8 0a bb
       -0.16879083 -0.0037026594 0.05772986 -0.0021186215
000200 71 78 ac 3c a2 39 ef bd 99 61 59 39 17 e0 91 be
       0.021053525 -0.116809145 0.0002073109 -0.2849128
000210 bf 8b 9d 3d 56 dc 7f bd 8f 51 fd 3c 96 6e d0 bd
       0.0769267 -0.062465988 0.03092268 -0.101773426
000220 69 f1 0c 3c 7e da bf bc 69 d2 73 3d 96 3d 3a 3d
       0.008602479 -0.023419615 0.059526835 0.04546889
000230 d5 3b b1 bc ca 97 94 3d b6 e3 1f be e2 c9 ed bc
       -0.021634975 0.07255514 -0.15614209 -0.02902693
000240 f1 20 92 3c 68 cb 82 3d ad 1f fe bc 2c 09 85 be
       0.017837973 0.06386453 -0.031020964 -0.2598356
000250 de 6d fb bb 0c 15 1e 3c 26 ff e4 3d 92 3f 83 be
       -0.0076730093 0.009648573 0.11181478 -0.25634438
000260 c9 43 d2 3d 27 31 3a bd 4b 98 bf 3c 40 44 b6 bd
       0.10266835 -0.04545703 0.023388049 -0.088997364
000270 ce ef a8 bd a7 5e f6 3c f3 51 0c be 8b 02 40 3d
       -0.08248864 0.03007443 -0.13703136 0.046877425
000280 02 cc c1 bc 00 c5 c2 bd 72 0e 12 be fb 4c 85 be
       -0.023656849 -0.09510231 -0.14263323 -0.26035294
000290 63 27 a3 be cc 47 0f 3d fb 1d c9 3c bb 2e 92 bc
       -0.31865987 0.03498058 0.024550429 -0.017844548
0002a0 78 ea 89 be cd b7 8c be 1b 2b db bd 41 fa 58 3d
       -0.26936698 -0.2748398 -0.10701581 0.052973036
0002b0 29 35 69 bd c7 91 89 bc b3 a5 f4 ba bd 37 f5 3b
       -0.056935463 -0.016793145 -0.0018665105 0.007483451
0002c0 94 f2 b2 3b f7 08 15 3d e4 90 a0 bc 06 ba b4 bc
       0.0054610465 0.036385503 -0.01960034 -0.02206136
0002d0 52 05 8a be ec 7a 68 3b a1 ea a5 3c e5 f9 92 be
       -0.26957184 0.0035473658 0.020253481 -0.2870628
0002e0 aa ec 0d bd 30 8f 0f 3e 2a 2c 70 3c 85 a8 76 bd
       -0.03464953 0.14019465 0.014658967 -0.060219306
0002f0 72 08 99 3d 76 05 85 3d f8 de 5b 3d da 1f 2f bd
       0.07472314 0.06495182 0.053679436 -0.042754985
000300 69 cb a3 bd 4d fb 94 bc c0 86 c5 bd f9 21 3c bd
       -0.07997782 -0.018186236 -0.09644842 -0.045930836
000310 63 67 d2 3c 2a 56 6c bd a3 39 a2 be 90 b2 72 3d
       0.025684064 -0.05769936 -0.31684598 0.05925232
000320 df c5 14 bd 12 0a 90 3d 58 29 e9 3d 5e 4a 8b 3d
       -0.036321517 0.07033171 0.11384839 0.06801294
000330 05 ff b4 bc 32 37 8b 3c d3 b6 0b bd a8 04 1f be
       -0.022094259 0.016994093 -0.0341099 -0.1552912
000340 7b fb 94 bc 1a b5 c7 3d 62 61 0d 3d 55 56 97 3d
       -0.018186321 0.09751339 0.0345167 0.073895134
000350 d7 05 57 bd a4 85 94 bc 94 00 9e be 6c 5d 41 bd
       -0.052495804 -0.018130131 -0.30859816 -0.047208235
000360 05 85 9c be f0 b8 3e 3d 7d 34 ca bc 37 40 86 bd
       -0.30570236 0.04656309 -0.024683231 -0.06555217
000370 0c 5d 2a 3d 68 dd 94 be a5 3c c0 bd fe a4 97 be
       0.041592643 -0.2907517 -0.09386567 -0.29618067
000380 e4 7f b4 bd c0 ed 0d bc bb ed dd bc d2 ea 9b 3c
       -0.08813456 -0.008662641 -0.027090898 0.01903287
000390 50 4b 90 be 7e 21 45 bd 62 7d 97 be 4a ff fb bc
       -0.2818246 -0.048127644 -0.29587847 -0.03076138
0003a0 df 46 af 3d 67 46 95 bc 25 d9 fb bd 0f cc 84 3d
       0.085584395 -0.018222047 -0.122972764 0.064842336
0003b0 16 94 81 bd 1b 40 23 3d a6 4a a3 bd 46 73 ea bb
       -0.06327073 0.039856058 -0.079732224 -0.007154855
0003c0 a0 a0 ba 3d b9 d2 5f 3d a5 1a f1 bc 12 57 1c bd
       0.09112668 0.05464432 -0.02943165 -0.038168974
0003d0 bb bb 8f bd 38 9e 0b bd db 33 98 be c3 f5 d5 3d
       -0.070182286 -0.034086436 -0.29727063 0.10447266
0003e0 27 c7 69 bd 66 90 19 bb 17 13 12 bd 9c 52 82 bd
       -0.057074692 -0.0023432015 -0.035662737 -0.06363413
0003f0 d1 b8 cb 3b 96 78 6f 3d 2a bc 70 bd 97 f9 a5 bd
       0.0062171 0.05846461 -0.058773197 -0.08104246
